data.pth (torch, 9706 bytes, 6 tensors)

l1.weight f4 [8, 138]
-0.4318842 0.7174562 0.08361724 0.19709487 0.068259224 0.07557119 0.16983357 0.11839316
0.5519594 0.3071818 0.17594013 0.059675887 -0.3098704 0.3315601 0.09427748 -0.4818027
0.20459987 -0.1283962 0.20995478 -0.5861719 0.24064489 0.3077365 0.45541087 -0.52559865
0.11352967 0.11152148 -0.27791658 0.2475165 0.45230126 -0.13207538 0.33394787 0.07561441
0.07929131 -0.07243855 0.6221003 -0.72864217 0.14111784 0.42172363 0.13711627 -0.23897739
0.24577375 -0.3115364 -0.5418935 0.14411521 0.059163693 -0.04850267 -0.5862946 0.60686475
-0.21224953 -0.32010645 -0.297797 -0.28773615 -0.2907025 0.16234122 0.11120468 0.43649876
0.09980676 0.068943426 -0.21262 -0.5833986 0.38063794 0.043064125 -0.3573645 0.38674897
-0.3030554 0.18214709 0.07218961 -0.33413944 0.2595572 -0.074132666 0.095863596 0.61965925
0.09221397 0.25987533 0.7459813 0.39166972 0.01648592 0.13024178 0.16129085 0.19597127
0.13214284 1.0263546 -0.52971375 -0.4428328 -0.3493342 -0.009702776 0.49167463 0.16715473
0.18901844 -0.011669218 0.05055674 -0.28447855 0.19990419 0.70513153 0.068274006 0.5300133
0.6684071 -0.6838409 0.046620805 0.40236166 0.18011452 0.2662751 -0.27662188 -1.0027149
0.28512776 -0.06292453 0.24633217 0.105007514 0.20236051 0.14410663 -0.42880887 0.68744344
0.33871067 0.19743685 1.2483699 0.6216585 0.57168823 -0.14449248 0.030265529 0.55865234
-0.13105759 0.12774436 0.031107632 0.24854863 0.1302534 0.00624388 0.1754303 0.26535738
0.2871692 -0.76970154 0.3297313 -0.013911731 -0.19658557 0.61368257 0.13923621 0.25140107
-0.5562564 -0.026205122 -0.5231551 -0.21644239 -0.18752432 -0.2538454 -0.088007785 -0.122326836
-0.31440476 -0.070567496 0.7060214 -0.33076277 9.5811745e-05 -0.06750594 -0.022757914 0.9042857
-0.11886535 -0.5030402 -0.10423193 -0.16731462 -0.2178864 0.45633566 -0.07708664 0.4444983
0.67243904 0.17541069 0.01482684 -0.020471748 0.13302732 -0.703912 0.4808397 0.02534706
0.39112073 0.16267781 -0.260439 0.9039881 0.30315736 -0.85985625 0.08016619 -0.10540159
-0.35129914 0.31399378 -0.27409512 -0.67996114 -0.23019217 0.16842946 0.11001064 -0.0101483725
0.4333376 0.40284213 0.4272707 -0.039661746 -0.6123925 -0.09118893 -0.066179454 -0.25589076
0.72408545 0.0794701 0.031360373 -0.032112144 0.27097479 -0.6400075 -0.011220799 -0.14248075
0.7073707 0.325644 0.43747985 -0.40861467 -0.05431443 0.21355744 -0.17936237 0.027705673
-0.019802015 0.28080207 0.019375086 -0.15011561 0.41864547 0.5714075 -0.025101999 -0.25920138
-0.036957327 -0.20532696 -0.014131368 0.55746514 -0.4329121 0.392308 -0.11347772 -0.4513443
0.6860765 0.4141724 -0.2723814 0.8410455 0.8287474 -0.31930926 -0.1632572 0.36945543
-0.049833458 0.456378 -0.2286425 -0.75789964 0.034040913 0.058964726 0.2708502 0.32467502
0.20490809 0.8119116 -0.73999447 -0.34063527 0.2947632 -0.046655778 0.13540976 -0.21269004
-0.44064125 0.6829284 0.5278751 -0.15436585 -1.0494617 -0.22037575 -0.2919791 0.37833095
00000000: ed1f ddbe 36ab 373f 843f ab3d 3dd3 493e
00000010: 7ecb 8b3d 11c5 9a3d dae8 2d3e 1d78 f23d
00000020: 364d 0d3f ef46 9d3e a629 343e b46e 743d
00000030: 55a7 9ebe 3fc2 a93e 8d14 c13d d8ae f6be
00000040: a182 513e 4b7a 03be 63fe 563e 5d0f 16bf
00000050: 9d6b 763e a38f 9d3e 9d2b e93e a28d 06bf
00000060: 3e82 e83d 6065 e43d 154b 8ebe f774 7d3e
00000070: 0894 e73e c53e 07be 37fb aa3e badb 9a3d
00000080: 7b63 a23d aa5a 94bd f741 1f3f 4b88 3abf
00000090: 3281 103e 29ec d73e 3568 0c3e 7db6 74be
000000a0: 1dac 7b3e b381 9fbe 88b9 0abf f092 133e
000000b0: a155 723d bcaa 46bd 6717 16bf 7d5b 1b3f
000000c0: f157 59be fee4 a3be d978 98be 2752 93be
000000d0: f5d6 94be c73c 263e 47bf e33d c47c df3e
000000e0: 7d67 cc3d 3632 8d3d 0fb9 59be 9c59 15bf
000000f0: fae2 c23e 0264 303d 7bf8 b6be f603 c63e
00000100: 142a 9bbe c484 3a3e 25d8 933d 5314 abbe
00000110: aee4 843e ded2 97bd 2254 c43d fda1 1e3f
00000120: aeda bc3d 610e 853e a1f8 3e3f ef88 c83e
00000130: 7b0d 873c 1a5e 053e 6e29 253e b1ac 483e
00000140: 7450 073e 965f 833f 529b 07bf fbba e2be
00000150: efdb b2be 64f8 1ebc c7bc fb3e 9c2a 2b3e
00000160: 0d8e 413e 3f30 3fbc 9614 4f3d 2ca7 91be
00000170: afb3 4c3e 8083 343f 3ed3 8b3d f4ae 073f
00000180: ba1c 2b3f 3210 2fbf 75f5 3e3d 5902 ce3e
00000190: f16f 383e 3655 883e 62a1 8dbe f658 80bf
000001a0: 44fc 913e 93de 80bd 803e 7c3e 2e0e d73d
000001b0: 9837 4f3e b090 133e d68c dbbe 4bfc 2f3f
000001c0: 7c6b ad3e e32c 4a3e 96ca 9f3f 0325 1f3f
000001d0: 295a 123f d6f5 13be 6aef f73c d703 0f3f
000001e0: f633 06be 6bcf 023e 6fd5 fe3c 8883 7e3e
000001f0: 2661 053e 7699 cc3b 00a4 333e ecdc 873e
00000200: d707 933e 290b 45bf 8ad2 a83e 07ee 63bc
00000210: ba4d 49be 4d1a 1d3f f093 0e3e a4b7 803e
00000220: d266 0ebf 20ac d6bc 7eed 05bf 13a3 5dbe
00000230: 6006 40be 06f8 81be 6d3d b4bd 7e86 fabd
00000240: a9f9 a0be b185 90bd d2bd 343f bd59 a9be
00000250: 8aee c838 8e40 8abd ce6e babc 457f 673f
00000260: ad6f f3bd 3ec7 00bf 8d77 d5bd 8654 2bbe
00000270: 9d1d 5fbe d4a4 e93e 9adf 9dbd 4895 e33e
00000280: f724 2c3f dc9e 333e 46ec 723c 5eb4 a7bc
00000290: 5038 083e 9433 34bf 9f30 f63e a3a4 cf3c
000002a0: fa40 c83e 0395 263e 4358 85be c46b 673f
000002b0: 7137 9b3e 8a1f 5cbf 2c2e a43d cadc d7bd
000002c0: 7bdd b3be cbc3 a03e 3256 8cbe ef11 2ebf
000002d0: 7fb7 6bbe c678 2c3e 424d e13d 5c45 26bc
000002e0: 6dde dd3e 5341 ce3e 3ac3 da3e 5b74 22bd
000002f0: c1c5 1cbf 43c1 babd 1889 87bd 1d04 83be
00000300: aa5d 393f 38c1 a23d bc73 003d 0688 03bd
00000310: 35bd 8a3e 88d7 23bf 71d7 37bc 79e6 11be
00000320: 3f16 353f cfba a63e 5cfd df3e f135 d1be
00000330: cf78 5ebd cdae 5a3e c5aa 37be 02f7 e23c
00000340: d637 a2bc 4ac5 8f3e 80b8 9e3c e8b7 19be
00000350: b358 d63e c347 123f b5a2 cdbc 0bb6 84be
00000360: 9160 17bd 3b41 52be 4187 67bc 09b6 0e3f
00000370: a8a6 ddbe 98dc c83e 0267 e8bd 9a16 e7be
00000380: b6a2 2f3f 680e d43e 9375 8bbe c24e 573f
00000390: ca28 543f 817c a3be e52c 27be 4329 bd3e
000003a0: 2b1e 4cbd 61aa e93e 4221 6abe b605 42bf
000003b0: 7c6e 0b3d ff84 713d e1ac 8a3e ce3b a63e
000003c0: 6dd3 513e 70d9 4f3f 4770 3dbf bf67 aebe
000003d0: 34eb 963e 211a 3fbd dba8 0a3e 6bcb 59be
000003e0: bb9b e1be 65d4 2e3f d322 073f 1512 1ebe
000003f0: c354 86bf 2eaa 61be 497e 95be 98b4 c13e

l1.bias f4 [8]
0.58630234 1.0490912 0.69685054 0.51631075 0.6270177 0.51895386 0.573861 1.3764589
00000000: e917 163f 9f48 863f cc64 323f f12c 043f
00000010: 3b84 203f 29da 043f 8ee8 123f ce2f b03f

l2.weight f4 [8, 8]
1.4994066 0.1570195 -0.18400629 1.6881332 0.8069178 1.0494227 0.16832066 -1.068494
0.35596898 -1.2995832 0.8908508 0.8415455 0.3889868 1.0621302 1.5958252 0.0040347464
-0.058217894 -0.9767389 1.0792902 -1.2157295 0.06066077 0.8687631 -0.97114265 1.1285892
-0.21311323 1.7400869 -0.55410254 0.5588437 0.4851585 -0.49613646 1.7260019 1.4760174
0.36864886 0.7102995 0.9878075 -1.5259484 -1.2070512 0.68723327 0.5791588 0.5663749
-0.818822 -0.50672424 1.8261292 0.44247538 1.6419482 -0.7453117 -0.413357 1.1429316
0.58986974 0.99468875 -0.6039279 -0.94739026 1.8811765 1.15067 -0.8196408 0.10586692
1.2352346 -0.5042736 -0.5826756 0.2323031 -0.0095429085 1.3387965 -0.78054094 1.1949074
00000000: 8eec bf3f b8c9 203e 256c 3cbe c014 d83f
00000010: 2a92 4e3f 7c53 863f 405c 2c3e 69c4 88bf
00000020: 9141 b63e be58 a6bf cc0e 643f 876f 573f
00000030: 4729 c73e e2f3 873f 0044 cc3f e835 843b
00000040: e375 6ebd 900b 7abf 2e26 8a3f 069d 9bbf
00000050: 6d77 783d 4267 5e3f ce9c 78bf 9c75 903f
00000060: 5b3a 5abe 2bbb de3f aad9 0dbf 6110 0f3f
00000070: b266 f83e 9905 febe a1ed dc3f 23ee bc3f
00000080: 8bbf bc3e 30d6 353f f4e0 7c3f 4752 c3bf
00000090: a780 9abf 85ee 2f3f c043 143f f2fd 103f
000000a0: 529e 51bf aeb8 01bf 9abe e93f 228c e23e
000000b0: 5c2b d23f bfcc 3ebf 87a3 d3be 954b 923f
000000c0: b401 173f eca3 7e3f 059b 1abf 2b88 72bf
000000d0: 64ca f03f 2849 933f fbd3 51bf c1d0 d83d
000000e0: 2b1c 9e3f 1318 01bf 3a2a 15bf dde0 6d3e
000000f0: dc59 1cbc af5d ab3f 88d1 47bf baf2 983f

l2.bias f4 [8]
0.29355186 -0.45361188 0.6330793 1.091442 0.2071938 0.5328345 0.07343777 0.5363228
00000000: 6e4c 963e d13f e8be 7c11 223f 5fb4 8b3f
00000010: 9d2a 543e d767 083f 8b66 963d 734c 093f

l3.weight f4 [18, 8]
-0.1514079 -0.24961083 -1.9297609 0.16118377 0.014533759 0.27698514 0.08056425 0.025507301
0.07891182 -0.2483071 0.39816839 -1.1826912 -0.14834234 0.077168725 0.34614372 0.056910165
0.024055729 -2.0808215 -1.3630929 0.1237549 -2.0122263 0.1936232 0.5468517 0.55286133
0.6877368 0.5977977 -0.62338775 0.32416508 -1.6890455 -1.3934139 -1.0065675 -1.1184076
-1.6542896 -1.4416467 0.40461332 0.4053723 1.0214257 0.41777864 -2.0826952 -0.40803352
-1.397549 -2.1419313 0.84243965 0.16436751 -0.7009472 0.4589023 0.22919047 0.64677495
-1.3442241 -1.3501595 -1.332177 0.81360877 0.7883822 -1.566385 -0.24192002 -0.36222333
0.33777612 0.19286856 -1.5468465 -0.078909166 -1.648394 0.98355937 -1.4533199 -1.1177329
-1.2483286 -1.2843744 -1.6140383 0.5275705 -0.49743637 0.50135726 0.59012187 -1.9344267
0.64059156 -1.2838696 -0.7006176 0.6190021 -1.0579358 -1.5726752 0.373504 -0.77030325
0.36777478 -0.53197294 0.16489576 -0.79058 0.66570973 -1.262066 0.45267752 0.16402505
-0.7043476 0.39890298 0.43469718 -0.21011204 0.4774202 -0.86926526 -0.094166584 -0.0015769978
-0.763539 0.5861568 -0.38546783 0.056391165 0.0417711 0.13628347 -1.7233305 -0.58738476
-1.270716 0.08321719 0.54203665 -1.0644405 0.5379018 0.19110797 -1.1107862 0.111935526
0.6063346 -0.07084361 -1.5689955 -0.49691352 -0.92505735 -1.1009521 0.6236204 0.35261318
0.486613 0.6089069 -0.9731264 -1.3163689 -0.4288427 0.15466592 -0.16586484 -0.332337
0.15976253 0.10273637 -0.6182996 0.14094268 -0.939254 -0.47883403 -1.7361696 1.1418681
-0.95397514 0.19045028 0.49366283 -0.3483427 -0.8351563 0.48495752 -0.16914593 -0.492652
00000000: ac0a 1bbe fb99 7fbe 6802 f7bf 5c0d 253e
00000010: 011f 6e3c ffd0 8d3e dffe a43d b0f4 d03c
00000020: 859c a13d 3744 7ebe badc cb3e 6d62 97bf
00000030: 0ee7 17be a30a 9e3d c039 b13e a21a 693d
00000040: 8510 c53c 2e2c 05c0 d479 aebf 3673 fd3d
00000050: 51c8 00c0 2945 463e 79fe 0b3f 5288 0d3f
00000060: 850f 303f 4509 193f 5796 1fbf f7f8 a53e
00000070: a532 d8bf 635b b2bf 34d7 80bf fb27 8fbf
00000080: c3bf d3bf e187 b8bf 7a29 cf3e f58c cf3e
00000090: 14be 823f 15e7 d53e e14a 05c0 c5e9 d0be
000000a0: e3e2 b2bf 6715 09c0 20aa 573f f54f 283e
000000b0: 4771 33bf 3ef5 ea3e e8b0 6a3e 0b93 253f
000000c0: 890f acbf 07d2 acbf c784 aabf aa48 503f
000000d0: 6ad3 493f 4e7f c8bf e2b9 77be 5675 b9be
000000e0: fef0 ac3e 567f 453e 11ff c5bf 219b a1bd
000000f0: 93fe d2bf 8cca 7b3f 6306 babf df11 8fbf
00000100: 3bc9 9fbf 6166 a4bf cf98 cebf dc0e 073f
00000110: fbaf febe f358 003f 3a12 173f 4b9b f7bf
00000120: cffd 233f d755 a4bf ad5b 33bf ec76 1e3f
00000130: 716a 87bf 6c4d c9bf eb3b bf3e 9832 45bf
00000140: fa4c bc3e 612f 08bf 6fda 283e 7363 4abf
00000150: f46b 2a3f 618b a1bf 59c5 e73e 2ff6 273e
00000160: 2050 34bf 033d cc3e a190 de3e 9c27 57be
00000170: 6c70 f43e 2b88 5ebf 69da c0bd 44b3 ceba
00000180: 4b77 43bf 5f0e 163f 0a5c c5be 6cfa 663d
00000190: 2c18 2b3d e58d 0b3e 1896 dcbf d95e 16bf
000001a0: d2a6 a2bf c66d aa3d eac2 0a3f 963f 88bf
000001b0: efb3 093f cfb1 433e 3e2e 8ebf 743e e53d
000001c0: bf38 1b3f 7416 91bd d8d4 c8bf 736b febe
000001d0: 8fd0 6cbf 00ec 8cbf 96a5 1f3f b789 b43e
000001e0: 5725 f93e 53e1 1b3f d01e 79bf c77e a8bf
000001f0: 4591 dbbe be60 1e3e 79d8 29be 1328 aabe
00000200: ca98 233e 7267 d23d e248 1ebf 4753 103e
00000210: f372 70bf bc29 f5be ce3a debf bc28 923f
00000220: b737 74bf 6605 433e 60c1 fc3e f959 b2be
00000230: cecc 55bf 5a4c f83e 9734 2dbe e23c fcbe

l3.bias f4 [18]
-0.12374909 -0.20670843 -0.11862386 -0.1830499 0.22234324 -0.027801434 0.3865982 0.26519993
0.10678798 -0.07779046 -0.3153398 -0.14984328 -0.43636912 -0.11571173 -0.44805574 0.016195878
0.14438716 -0.0839787
00000000: 2a70 fdbd 60ab 53be 11f1 f2bd 6f71 3bbe
00000010: f2ad 633e d5bf e3bc 33f0 c53e 49c8 873e
00000020: a8b3 da3d 9b50 9fbd 3874 a1be 8470 19be
00000030: c66b dfbe 46fa ecbd 9067 e5be 38ad 843c
00000040: 3ada 133e 06fd abbd
